…
Python 3.6.10 |Anaconda, Inc.| (default, May  7 2020, 19:46:08) [MSC v.1916 64 bit (AMD64)]
Type 'copyright', 'credits' or 'license' for more information
IPython 7.13.0 -- An enhanced Interactive Python. Type '?' for help.
PyDev console: using IPython 7.13.0
Python 3.6.10 |Anaconda, Inc.| (default, May  7 2020, 19:46:08) [MSC v.1916 64 bit (AMD64)] on win32
runfile('C:/Users/nilst/Documents/Adversarial_curiosity/code/test_ac_dqn_2D.py', wdir='C:/Users/nilst/Documents/Adversarial_curiosity/code')
final_results/Riverraid-v0/2020-08-07_17-32-41-534130_-__random_4/
Device: cuda
DQN Architecture:
Network2D(
  (model): Sequential(
    (0): Conv2d(4, 32, kernel_size=(8, 8), stride=(4, 4))
    (1): ReLU()
    (2): Conv2d(32, 64, kernel_size=(4, 4), stride=(2, 2))
    (3): ReLU()
    (4): Conv2d(64, 64, kernel_size=(3, 3), stride=(1, 1))
    (5): ReLU()
    (6): Flatten()
    (7): Linear(in_features=3136, out_features=512, bias=True)
    (8): ReLU()
    (9): Linear(in_features=512, out_features=18, bias=True)
  )
)
Observation space: (4, 84, 84)
Encoder has dimensions: (4, 84, 84) -> (32,) Device: cuda
World model has input dimensions: (32,) + (18,)
WM Architecture:
DeterministicCRandomEncodedFM(
  (encoder): RandomEncoder_2D(
    (model): Sequential(
      (0): Conv2d(4, 32, kernel_size=(8, 8), stride=(4, 4))
      (1): ReLU()
      (2): Conv2d(32, 64, kernel_size=(4, 4), stride=(2, 2))
      (3): ReLU()
      (4): Conv2d(64, 64, kernel_size=(3, 3), stride=(1, 1))
      (5): ReLU()
      (6): Flatten()
      (7): Linear(in_features=3136, out_features=256, bias=True)
      (8): ReLU()
      (9): Linear(in_features=256, out_features=32, bias=True)
    )
  )
  (forward_model): ForwardModel(
    (model): Sequential(
      (0): Linear(in_features=50, out_features=64, bias=True)
      (1): ReLU()
      (2): Linear(in_features=64, out_features=32, bias=True)
    )
  )
  (loss_func_distance): MSELoss()
)
Filling buffer
Buffer fill time: 0.768607s.
Evaluation:  Returns: [890.0, 920.0, 890.0]
 Int_returns: [114.93183323740959, 120.1224046498537, 118.88811279833317]
 Lengths: [552, 577, 570]
 Eval time: 10.034267s.
 Num episodes: 3
Training...
--------------------------------------
 Step: 500 / 3000000       E(G): 0.000 Eps: 1.000 Time elapsed: 0:0:11
…
