final_results/Breakout-v0/2020-07-31_06-38-10-098523_-_2Dcuriosity_LISA_cont_2/
Device: cuda
DQN Architecture:
Network2D(
  (model): Sequential(
    (0): Conv2d(4, 32, kernel_size=(8, 8), stride=(4, 4))
    (1): ReLU()
    (2): Conv2d(32, 64, kernel_size=(4, 4), stride=(2, 2))
    (3): ReLU()
    (4): Conv2d(64, 64, kernel_size=(3, 3), stride=(1, 1))
    (5): ReLU()
    (6): Flatten()
    (7): Linear(in_features=3136, out_features=512, bias=True)
    (8): ReLU()
    (9): Linear(in_features=512, out_features=4, bias=True)
  )
)
Observation space: (4, 84, 84)
Encoder has dimensions: (4, 84, 84) -> (512,) Device: cuda
World model has input dimensions: (512,) + (4,)
WM Architecture:
DeterministicContrastiveEncodedFM(
  (encoder): Encoder_2D(
    (model): Sequential(
      (0): Conv2d(4, 32, kernel_size=(8, 8), stride=(4, 4))
      (1): BatchNorm2d(32, eps=1e-05, momentum=0.1, affine=True, track_running_stats=True)
      (2): ReLU()
      (3): Conv2d(32, 64, kernel_size=(4, 4), stride=(2, 2))
      (4): BatchNorm2d(64, eps=1e-05, momentum=0.1, affine=True, track_running_stats=True)
      (5): ReLU()
      (6): Conv2d(64, 64, kernel_size=(3, 3), stride=(1, 1))
      (7): BatchNorm2d(64, eps=1e-05, momentum=0.1, affine=True, track_running_stats=True)
      (8): ReLU()
      (9): Flatten()
      (10): Linear(in_features=3136, out_features=512, bias=True)
      (11): ReLU()
      (12): Linear(in_features=512, out_features=512, bias=True)
    )
  )
  (target_encoder): Encoder_2D(
    (model): Sequential(
      (0): Conv2d(4, 32, kernel_size=(8, 8), stride=(4, 4))
      (1): BatchNorm2d(32, eps=1e-05, momentum=0.1, affine=True, track_running_stats=True)
      (2): ReLU()
      (3): Conv2d(32, 64, kernel_size=(4, 4), stride=(2, 2))
      (4): BatchNorm2d(64, eps=1e-05, momentum=0.1, affine=True, track_running_stats=True)
      (5): ReLU()
      (6): Conv2d(64, 64, kernel_size=(3, 3), stride=(1, 1))
      (7): BatchNorm2d(64, eps=1e-05, momentum=0.1, affine=True, track_running_stats=True)
      (8): ReLU()
      (9): Flatten()
      (10): Linear(in_features=3136, out_features=512, bias=True)
      (11): ReLU()
      (12): Linear(in_features=512, out_features=512, bias=True)
    )
  )
  (forward_model): ForwardModel(
    (model): Sequential(
      (0): Linear(in_features=516, out_features=256, bias=True)
      (1): ReLU()
      (2): Linear(in_features=256, out_features=512, bias=True)
    )
  )
  (loss_func_distance): MSELoss()
  (loss_func_neg_sampling): HingeLoss()
)
Filling buffer
Buffer fill time: 154.286821s.
Evaluating...Evaluation:  Returns: [0.0, 0.0, 0.0]
 Int_returns: [299.1055886745453, 286.726091504097, 290.52615225315094]
 Lengths: [166, 158, 161]
 Eval time: 4.03241s.
 Num episodes: 3
Training...
--------------------------------------
…
