final_results/Riverraid-v0/2020-07-28_12-14-12-269407_-__vae_1/
Device: cuda
DQN Architecture:
Network2D(
  (model): Sequential(
    (0): Conv2d(4, 32, kernel_size=(8, 8), stride=(4, 4))
    (1): ReLU()
    (2): Conv2d(32, 64, kernel_size=(4, 4), stride=(2, 2))
    (3): ReLU()
    (4): Conv2d(64, 64, kernel_size=(3, 3), stride=(1, 1))
    (5): ReLU()
    (6): Flatten()
    (7): Linear(in_features=3136, out_features=512, bias=True)
    (8): ReLU()
    (9): Linear(in_features=512, out_features=18, bias=True)
  )
)
Observation space: (4, 84, 84)
Encoder has dimensions: (4, 84, 84) -> (512,) Device: cuda
Decoder has dimensions: (512,) -> (4, 84, 84)
World model has input dimensions: (512,) + (18,)
WM Architecture:
VAEFM(
  (vae): VAE(
    (encoder): Encoder_2D_Sigma(
      (model): Sequential(
        (0): Conv2d(4, 32, kernel_size=(8, 8), stride=(4, 4))
        (1): BatchNorm2d(32, eps=1e-05, momentum=0.1, affine=True, track_running_stats=True)
        (2): ReLU()
        (3): Conv2d(32, 64, kernel_size=(4, 4), stride=(2, 2))
        (4): BatchNorm2d(64, eps=1e-05, momentum=0.1, affine=True, track_running_stats=True)
        (5): ReLU()
        (6): Conv2d(64, 64, kernel_size=(3, 3), stride=(1, 1))
        (7): BatchNorm2d(64, eps=1e-05, momentum=0.1, affine=True, track_running_stats=True)
        (8): ReLU()
        (9): Flatten()
        (10): Linear(in_features=3136, out_features=512, bias=True)
        (11): ReLU()
      )
      (mu_head): Sequential(
        (0): Linear(in_features=512, out_features=512, bias=True)
      )
      (sigma_head): Sequential(
        (0): Linear(in_features=512, out_features=512, bias=True)
      )
    )
    (decoder): Decoder_2D_conv(
      (model): Sequential(
        (0): Linear(in_features=512, out_features=512, bias=True)
        (1): ReLU()
        (2): Linear(in_features=512, out_features=3136, bias=True)
        (3): View2D()
        (4): ReLU()
        (5): ConvTranspose2d(64, 64, kernel_size=(3, 3), stride=(1, 1))
        (6): ReLU()
        (7): ConvTranspose2d(64, 32, kernel_size=(4, 4), stride=(2, 2))
        (8): ReLU()
        (9): ConvTranspose2d(32, 4, kernel_size=(8, 8), stride=(4, 4))
        (10): Sigmoid()
      )
    )
    (loss): BCELoss()
  )
  (target_encoder): Encoder_2D_Sigma(
    (model): Sequential(
      (0): Conv2d(4, 32, kernel_size=(8, 8), stride=(4, 4))
      (1): BatchNorm2d(32, eps=1e-05, momentum=0.1, affine=True, track_running_stats=True)
      (2): ReLU()
      (3): Conv2d(32, 64, kernel_size=(4, 4), stride=(2, 2))
      (4): BatchNorm2d(64, eps=1e-05, momentum=0.1, affine=True, track_running_stats=True)
      (5): ReLU()
      (6): Conv2d(64, 64, kernel_size=(3, 3), stride=(1, 1))
      (7): BatchNorm2d(64, eps=1e-05, momentum=0.1, affine=True, track_running_stats=True)
      (8): ReLU()
      (9): Flatten()
      (10): Linear(in_features=3136, out_features=512, bias=True)
      (11): ReLU()
    )
    (mu_head): Sequential(
      (0): Linear(in_features=512, out_features=512, bias=True)
    )
    (sigma_head): Sequential(
      (0): Linear(in_features=512, out_features=512, bias=True)
    )
  )
  (forward_model): ForwardModel(
    (model): Sequential(
      (0): Linear(in_features=530, out_features=256, bias=True)
      (1): ReLU()
      (2): Linear(in_features=256, out_features=512, bias=True)
    )
  )
  (loss_func_distance): MSELoss()
)
Filling buffer
Buffer fill time: 155.822274s.
Evaluating...Evaluation:  Returns: [1250.0, 1250.0, 1250.0]
 Int_returns: [7111.151101112366, 7096.606374263763, 7114.971381664276]
 Lengths: [1444, 1446, 1434]
 Eval time: 25.019866s.
 Num episodes: 3
Training...
--------------------------------------
 Step: 500 / 10000000       E(G): 155.000 Eps: 0.100 Time elapsed: 0:3:24
…
