final_results/Riverraid-v0/2020-07-28_05-19-45-445159_-__cont_2/
Device: cuda
DQN Architecture:
Network2D(
  (model): Sequential(
    (0): Conv2d(4, 32, kernel_size=(8, 8), stride=(4, 4))
    (1): ReLU()
    (2): Conv2d(32, 64, kernel_size=(4, 4), stride=(2, 2))
    (3): ReLU()
    (4): Conv2d(64, 64, kernel_size=(3, 3), stride=(1, 1))
    (5): ReLU()
    (6): Flatten()
    (7): Linear(in_features=3136, out_features=512, bias=True)
    (8): ReLU()
    (9): Linear(in_features=512, out_features=18, bias=True)
  )
)
Observation space: (4, 84, 84)
Encoder has dimensions: (4, 84, 84) -> (512,) Device: cuda
World model has input dimensions: (512,) + (18,)
WM Architecture:
DeterministicContrastiveEncodedFM(
  (encoder): Encoder_2D(
    (model): Sequential(
      (0): Conv2d(4, 32, kernel_size=(8, 8), stride=(4, 4))
      (1): BatchNorm2d(32, eps=1e-05, momentum=0.1, affine=True, track_running_stats=True)
      (2): ReLU()
      (3): Conv2d(32, 64, kernel_size=(4, 4), stride=(2, 2))
      (4): BatchNorm2d(64, eps=1e-05, momentum=0.1, affine=True, track_running_stats=True)
      (5): ReLU()
      (6): Conv2d(64, 64, kernel_size=(3, 3), stride=(1, 1))
      (7): BatchNorm2d(64, eps=1e-05, momentum=0.1, affine=True, track_running_stats=True)
      (8): ReLU()
      (9): Flatten()
      (10): Linear(in_features=3136, out_features=512, bias=True)
      (11): ReLU()
      (12): Linear(in_features=512, out_features=512, bias=True)
    )
  )
  (target_encoder): Encoder_2D(
    (model): Sequential(
      (0): Conv2d(4, 32, kernel_size=(8, 8), stride=(4, 4))
      (1): BatchNorm2d(32, eps=1e-05, momentum=0.1, affine=True, track_running_stats=True)
      (2): ReLU()
      (3): Conv2d(32, 64, kernel_size=(4, 4), stride=(2, 2))
      (4): BatchNorm2d(64, eps=1e-05, momentum=0.1, affine=True, track_running_stats=True)
      (5): ReLU()
      (6): Conv2d(64, 64, kernel_size=(3, 3), stride=(1, 1))
      (7): BatchNorm2d(64, eps=1e-05, momentum=0.1, affine=True, track_running_stats=True)
      (8): ReLU()
      (9): Flatten()
      (10): Linear(in_features=3136, out_features=512, bias=True)
      (11): ReLU()
      (12): Linear(in_features=512, out_features=512, bias=True)
    )
  )
  (forward_model): ForwardModel(
    (model): Sequential(
      (0): Linear(in_features=530, out_features=256, bias=True)
      (1): ReLU()
      (2): Linear(in_features=256, out_features=512, bias=True)
    )
  )
  (loss_func_distance): MSELoss()
  (loss_func_neg_sampling): HingeLoss()
)
Filling buffer
Buffer fill time: 154.959112s.
Evaluating...Evaluation:  Returns: [360.0, 240.0, 240.0]
 Int_returns: [1761.2340295314789, 1752.3995361328125, 1713.2602109909058]
 Lengths: [381, 378, 376]
 Eval time: 6.860291s.
 Num episodes: 3
Training...
--------------------------------------
…
