final_results/Breakout-v0/2020-08-01_20-30-52-309819_-_2Dcuriosity_LISA_idf_1/
Device: cuda
DQN Architecture:
Network2D(
  (model): Sequential(
    (0): Conv2d(4, 32, kernel_size=(8, 8), stride=(4, 4))
    (1): ReLU()
    (2): Conv2d(32, 64, kernel_size=(4, 4), stride=(2, 2))
    (3): ReLU()
    (4): Conv2d(64, 64, kernel_size=(3, 3), stride=(1, 1))
    (5): ReLU()
    (6): Flatten()
    (7): Linear(in_features=3136, out_features=512, bias=True)
    (8): ReLU()
    (9): Linear(in_features=512, out_features=4, bias=True)
  )
)
Observation space: (4, 84, 84)
Encoder has dimensions: (4, 84, 84) -> (512,) Device: cuda
World model has input dimensions: (512,) + (4,)
WM Architecture:
DeterministicInvDynFeatFM(
  (encoder): Encoder_2D(
    (model): Sequential(
      (0): Conv2d(4, 32, kernel_size=(8, 8), stride=(4, 4))
      (1): BatchNorm2d(32, eps=1e-05, momentum=0.1, affine=True, track_running_stats=True)
      (2): ReLU()
      (3): Conv2d(32, 64, kernel_size=(4, 4), stride=(2, 2))
      (4): BatchNorm2d(64, eps=1e-05, momentum=0.1, affine=True, track_running_stats=True)
      (5): ReLU()
      (6): Conv2d(64, 64, kernel_size=(3, 3), stride=(1, 1))
      (7): BatchNorm2d(64, eps=1e-05, momentum=0.1, affine=True, track_running_stats=True)
      (8): ReLU()
      (9): Flatten()
      (10): Linear(in_features=3136, out_features=512, bias=True)
      (11): ReLU()
      (12): Linear(in_features=512, out_features=512, bias=True)
    )
  )
  (target_encoder): Encoder_2D(
    (model): Sequential(
      (0): Conv2d(4, 32, kernel_size=(8, 8), stride=(4, 4))
      (1): BatchNorm2d(32, eps=1e-05, momentum=0.1, affine=True, track_running_stats=True)
      (2): ReLU()
      (3): Conv2d(32, 64, kernel_size=(4, 4), stride=(2, 2))
      (4): BatchNorm2d(64, eps=1e-05, momentum=0.1, affine=True, track_running_stats=True)
      (5): ReLU()
      (6): Conv2d(64, 64, kernel_size=(3, 3), stride=(1, 1))
      (7): BatchNorm2d(64, eps=1e-05, momentum=0.1, affine=True, track_running_stats=True)
      (8): ReLU()
      (9): Flatten()
      (10): Linear(in_features=3136, out_features=512, bias=True)
      (11): ReLU()
      (12): Linear(in_features=512, out_features=512, bias=True)
    )
  )
  (inverse_model): InverseModel(
    (model): Sequential(
      (0): Linear(in_features=1024, out_features=256, bias=True)
      (1): ReLU()
      (2): Linear(in_features=256, out_features=4, bias=True)
      (3): Softmax(dim=1)
    )
  )
  (forward_model): ForwardModel(
    (model): Sequential(
      (0): Linear(in_features=516, out_features=256, bias=True)
      (1): ReLU()
      (2): Linear(in_features=256, out_features=512, bias=True)
    )
  )
  (loss_func_distance): MSELoss()
  (loss_func_inverse): BCELoss()
)
Filling buffer
Buffer fill time: 152.977668s.
Evaluating...Evaluation:  Returns: [0.0, 0.0, 0.0]
 Int_returns: [18963.237693190575, 18963.205314397812, 18963.23734807968]
 Lengths: [10000, 10000, 10000]
 Eval time: 228.502267s.
 Num episodes: 3
Training...
--------------------------------------
…
