final_results/Riverraid-v0/2020-07-28_11-58-47-629096_-__random_2/
Device: cuda
DQN Architecture:
Network2D(
  (model): Sequential(
    (0): Conv2d(4, 32, kernel_size=(8, 8), stride=(4, 4))
    (1): ReLU()
    (2): Conv2d(32, 64, kernel_size=(4, 4), stride=(2, 2))
    (3): ReLU()
    (4): Conv2d(64, 64, kernel_size=(3, 3), stride=(1, 1))
    (5): ReLU()
    (6): Flatten()
    (7): Linear(in_features=3136, out_features=512, bias=True)
    (8): ReLU()
    (9): Linear(in_features=512, out_features=18, bias=True)
  )
)
Observation space: (4, 84, 84)
Encoder has dimensions: (4, 84, 84) -> (512,) Device: cuda
World model has input dimensions: (512,) + (18,)
WM Architecture:
DeterministicCRandomEncodedFM(
  (encoder): RandomEncoder_2D(
    (model): Sequential(
      (0): Conv2d(4, 32, kernel_size=(8, 8), stride=(4, 4))
      (1): ReLU()
      (2): Conv2d(32, 64, kernel_size=(4, 4), stride=(2, 2))
      (3): ReLU()
      (4): Conv2d(64, 64, kernel_size=(3, 3), stride=(1, 1))
      (5): ReLU()
      (6): Flatten()
      (7): Linear(in_features=3136, out_features=256, bias=True)
      (8): ReLU()
      (9): Linear(in_features=256, out_features=512, bias=True)
    )
  )
  (forward_model): ForwardModel(
    (model): Sequential(
      (0): Linear(in_features=530, out_features=256, bias=True)
      (1): ReLU()
      (2): Linear(in_features=256, out_features=512, bias=True)
    )
  )
  (loss_func_distance): MSELoss()
)
Filling buffer
Buffer fill time: 153.972272s.
Evaluating...Evaluation:  Returns: [180.0, 240.0, 270.0]
 Int_returns: [330.1842717528343, 291.4942521452904, 260.38426715135574]
 Lengths: [419, 369, 329]
 Eval time: 5.820174s.
 Num episodes: 3
Training...
--------------------------------------
 Step: 500 / 10000000       E(G): 60.000 Eps: 0.100 Time elapsed: 0:2:55
…
