final_results/Breakout-v0/2020-07-31_06-38-10-259135_-_2Dcuriosity_LISA_random_2/
Device: cuda
DQN Architecture:
Network2D(
  (model): Sequential(
    (0): Conv2d(4, 32, kernel_size=(8, 8), stride=(4, 4))
    (1): ReLU()
    (2): Conv2d(32, 64, kernel_size=(4, 4), stride=(2, 2))
    (3): ReLU()
    (4): Conv2d(64, 64, kernel_size=(3, 3), stride=(1, 1))
    (5): ReLU()
    (6): Flatten()
    (7): Linear(in_features=3136, out_features=512, bias=True)
    (8): ReLU()
    (9): Linear(in_features=512, out_features=4, bias=True)
  )
)
Observation space: (4, 84, 84)
Encoder has dimensions: (4, 84, 84) -> (512,) Device: cuda
World model has input dimensions: (512,) + (4,)
WM Architecture:
DeterministicCRandomEncodedFM(
  (encoder): RandomEncoder_2D(
    (model): Sequential(
      (0): Conv2d(4, 32, kernel_size=(8, 8), stride=(4, 4))
      (1): ReLU()
      (2): Conv2d(32, 64, kernel_size=(4, 4), stride=(2, 2))
      (3): ReLU()
      (4): Conv2d(64, 64, kernel_size=(3, 3), stride=(1, 1))
      (5): ReLU()
      (6): Flatten()
      (7): Linear(in_features=3136, out_features=256, bias=True)
      (8): ReLU()
      (9): Linear(in_features=256, out_features=512, bias=True)
    )
  )
  (forward_model): ForwardModel(
    (model): Sequential(
      (0): Linear(in_features=516, out_features=256, bias=True)
      (1): ReLU()
      (2): Linear(in_features=256, out_features=512, bias=True)
    )
  )
  (loss_func_distance): MSELoss()
)
Filling buffer
Buffer fill time: 154.165374s.
Evaluating...Evaluation:  Returns: [0.0, 0.0, 0.0]
 Int_returns: [138.3944605588913, 137.54125773906708, 139.24990665912628]
 Lengths: [162, 161, 163]
 Eval time: 2.829495s.
 Num episodes: 3
Training...
--------------------------------------
 Step: 500 / 10000000       E(G): 0.000 Eps: 0.100 Time elapsed: 0:2:52
…
